models_archive/model_-1.pth (torch, 170194 bytes, 6 tensors)

conv1.0.weight f4 [2, 1, 2, 2]
0.13803971 -0.96815914 -0.11343976 -0.6825986 1.3251903 1.3624871 0.765677 1.4322226
00000000: 485a 0d3e 47d9 77bf 1b53 e8bd c8be 2ebf
00000010: d69f a93f fa65 ae3f 6803 443f 1253 b73f

conv1.0.bias f4 [2]
1.6269867 -1.2109792
00000000: 1a41 d03f 5e01 9bbf

fc.0.weight f4 [120, 338]
-0.000725183 0.021746337 0.027062496 0.01668431 0.03394034 -0.02897292 0.03910109 0.030956164
0.0001432243 0.0446855 -0.050188232 -0.019360919 0.030850403 0.027877593 -0.0075642974 -0.051214848
-0.024080634 0.0056184675 0.034050457 0.049872305 0.075313 0.03764879 -0.008496177 -0.040882792
0.01286427 -0.03401693 0.0018147099 -0.010858954 -0.006348336 0.016134277 0.033476543 0.041090503
0.06200927 -0.048552178 0.0048381775 0.047131408 -0.03956566 0.023615286 0.0045373025 -0.035651665
0.0418133 0.06434927 0.06530376 0.032233905 -0.008997666 -0.052249804 -0.024106067 -0.022447076
0.021045638 8.396309e-05 0.027993001 -0.040345337 -0.0008772475 -0.02363486 -0.04308555 0.07462684
0.05318731 0.044754475 0.011517198 0.035169836 -0.026252205 -0.0003683798 -0.03986919 0.00126847
0.039800853 -0.020172725 -0.008416053 -0.02306797 -0.009319604 0.012076863 0.010705174 0.048501126
0.0063514356 0.011448569 -0.011484928 0.008130275 0.015419854 0.019873433 -0.06122905 0.032806873
-0.0499534 0.048201647 0.018360406 -0.035566047 0.006350928 0.034883175 0.011287109 0.0401636
0.032551564 -0.057901654 0.017604398 -0.016190832 -0.041473106 0.0050497055 0.018550249 -0.017293578
0.019357529 0.03644907 -0.048416864 -0.033441823 0.012345594 -0.016984707 -0.017599884 -0.03624847
0.03861987 -0.06198234 -0.0789649 -0.061555706 0.010282378 -0.041970484 0.013666653 -0.038107757
-0.023139106 0.05168515 -0.016088648 0.041050438 0.007099576 0.031912453 -0.06343378 -0.04629134
0.004354845 -0.06171964 -0.004475322 -0.057575885 -0.057330202 0.000116144816 0.01224822 -0.027091062
0.01143728 -0.008018494 0.012360965 0.023104174 -0.004346363 -0.042786345 0.031159712 0.007842593
0.04666071 -0.03803298 0.022679688 0.04547591 -0.025189089 0.008630266 0.010355795 -0.0039026223
0.04971358 -0.026372332 0.017584525 -0.039995566 -0.025838012 0.025341302 0.044865623 0.016289774
-0.025236404 0.0043744836 0.04106092 -0.00788541 -0.036232386 -0.0040103407 -0.0032872683 0.038602047
-0.023634883 -0.03128193 -0.019709427 0.03718725 -0.052032858 0.03370652 0.016464423 -0.046565156
-0.051523156 -0.051552627 0.036371198 0.0020841812 0.036943205 0.042125978 -0.034552436 -0.018680457
-0.064513974 0.018088697 -0.06770227 0.017424548 0.012318076 -0.038968552 -0.010004763 -0.053524774
0.024579125 -0.023346439 -0.009940962 -0.014577821 -0.02268902 -0.09591226 -0.025429308 0.012040769
-0.00014874672 -0.05245809 0.0051844837 -0.034265768 -0.04467743 0.009561544 -0.023580324 -0.0716018
-0.063768044 -0.06914702 -0.039789617 0.016574625 0.009261993 -0.010787686 -0.019267332 0.03136111
-0.012557501 0.02771021 0.021464128 -0.03903582 -0.081254415 0.03470716 0.058702786 -0.01322452
-0.0020247893 -0.031022111 0.04128697 -0.025035497 0.0320491 0.014023266 0.042505194 0.030187158
-0.06023789 -0.04190691 0.0015695263 -0.035847243 -0.010828804 0.04609833 -0.028900487 0.02840976
0.0058562527 -0.0144106075 0.010402352 -0.0032957555 -0.01732564 -0.02190024 -0.10347171 -0.031005915
-0.03049718 0.0445517 -0.0060240636 -0.05718841 -0.040611017 0.01478671 0.063075826 -0.004417077
0.024488598 -0.0011811042 -0.046376497 -0.016922995 -0.0257412 -0.025323812 0.06270711 0.03543393
00000000: 351a 3eba 6025 b23c 2bb2 dd3c 89ad 883c
00000010: 0705 0b3d 9e58 edbc 7728 203d c897 fd3c
00000020: 7b2e 1639 2508 373d 2d92 4dbd ca9a 9ebc
00000030: fcb9 fc3c 8d5f e43c eddd f7bb a9c6 51bd
00000040: c044 c5bc 1f1b b83b 7e78 0b3d e746 4c3d
00000050: b43d 9a3d 9e35 1a3d 8d33 0bbc b774 27bd
00000060: a9c4 523c 5655 0bbd 8fdb ed3a c1e9 31bc
00000070: b405 d0bb 082c 843c b31e 093d 844e 283d
00000080: 6ffd 7d3d a6de 46bd 9389 9e3b dd0c 413d
00000090: 9a0f 22bd d874 c13c a7ad 943b 7b07 12bd
000000a0: 6c44 2b3d 8dc9 833d fabd 853d b307 043d
000000b0: f26a 13bc e403 56bd 167a c5bc eee2 b7bc
000000c0: e767 ac3c 5715 b038 9451 e53c 2741 25bd
000000d0: 15f7 65ba e59d c1bc 797a 30bd f5d5 983d
000000e0: f0da 593d 7850 373d a1b2 3c3c 3f0e 103d
000000f0: dd0e d7bc 1a23 c1b9 e04d 23bd ca42 a63a
00000100: 3806 233d 4541 a5bc 7ce3 09bc 0af9 bcbc
00000110: 41b1 18bc 09de 453c c164 2f3c 1ea9 463d
00000120: b41f d03b c792 3b3c 482b 3cbc d834 053c
00000130: 8ea3 7c3c 9ccd a23c 50cb 7abd 8060 063d
00000140: f09b 4cbd 176f 453d 9068 963c b4ad 11bd
00000150: 721b d03b a9e1 0e3d 91ed 383c 9682 243d
00000160: ca54 053d 492a 6dbd 1937 903c a3a2 84bc
00000170: b4df 29bd 0078 a53b b1f6 973c 43ab 8dbc
00000180: ae93 9e3c 9f4b 153d c350 46bd 4bfa 08bd
00000190: 2d45 4a3c 8323 8bbc a22d 90bc 4779 14bd
000001a0: de2f 1e3d 32e1 7dbd 59b8 a1bd d621 7cbd
000001b0: 6b77 283c 3ee9 2bbd 19ea 5f3c e116 1cbd
000001c0: 398e bdbc cfb3 533d 57cc 83bc 8124 283d
000001d0: 8fa3 e83b a2b6 023d 92e9 81bd fd9b 3dbd
000001e0: 16b3 8e3b bccd 7cbd b9a5 92bb b1d4 6bbd
000001f0: 13d3 6abd c692 f338 c2ac 483c 13ee ddbc
00000200: 6e63 3b3c 0060 03bc a585 4a3c f744 bd3c
00000210: ef6b 8ebb bc40 2fbd a742 ff3c 387e 003c
00000220: 4d1f 3f3d 78c8 1bbd c1ca b93c f344 3a3d
00000230: 5959 cebc f665 0d3c 5aab 293c 23c3 7fbb
00000240: 78a0 4b3d ca0a d8bc 6c0d 903c 64d2 23bd
00000250: 3daa d3bc 9098 cf3c 04c5 373d 2272 853c
00000260: 93bc cebc d457 8f3b 7f2f 283d cf31 01bc
00000270: 6968 14bd 2d69 83bb 366f 57bb 2e1d 1e3d
00000280: f19d c1bc 7b21 00bd aa75 a1bc a851 183d
00000290: 6820 55bd d90f 0a3d 66e0 863c 1bbb 3ebd
000002a0: f209 53bd d928 53bd f7f9 143d c296 083b
000002b0: c251 173d 4a8c 2c3d db86 0dbd c207 99bc
000002c0: e71f 84bd bf2e 943c 7da7 8abd edbd 8e3c
000002d0: c1d1 493c 7d9d 1fbd 04eb 23bc cb3c 5bbd
000002e0: 295a c93c 0841 bfbc 6bdf 22bc d0d7 6ebc
000002f0: 53de b9bc a66d c4bd 2051 d0bc a546 453c
00000300: e5f8 1bb9 4bde 56bd 9ae2 a93b 435a 0cbd
00000310: aeff 36bd 06a8 1c3c 862b c1bc f7a3 92bd
00000320: d298 82bd f49c 8dbd 70fa 22bd 82c7 873c
00000330: 9dbf 173c d6be 30bc 86d6 9dbc 8274 003d
00000340: fabd 4dbc 8600 e33c 8ad5 af3c 06e4 1fbd
00000350: b768 a6bd 1829 0e3d 5572 703d a8ab 58bc
00000360: 54b2 04bb 1522 febc 871c 293d 3e17 cdbc
00000370: eb45 033d d7c1 653c ed19 2e3d 0f4b f73c
00000380: 01bc 76bd 94a6 2bbd 90b8 cd3a 8fd4 12bd
00000390: 4c6b 31bc 9ad1 3c3d b7c0 ecbc 96bb e83c
000003a0: cfe5 bf3b 781a 6cbc a06e 2a3c 9afd 57bb
000003b0: 80ee 8dbc 2268 b3bc fae8 d3bd 1e00 febc
000003c0: 39d5 f9bc d87b 363d 8265 c5bb 653e 6abd
000003d0: bd57 26bd f543 723c e62d 813d 21bd 90bb
000003e0: 509c c83c 48cf 9aba 48f5 3dbd 18a2 8abc
000003f0: 36df d2bc e273 cfbc 966c 803d 2b23 113d

fc.0.bias f4 [120]
-0.04483433 0.0130525 -0.018409185 -0.042416025 -0.009577428 0.04851087 0.022644708 -0.020141844
-0.04883257 -0.024837332 -0.0057327044 0.035992883 0.041250143 -0.037485495 0.054703083 0.02870874
-0.011991468 -0.0018910968 0.018282136 0.026057187 0.0013118117 0.036199294 0.055631734 -0.03192734
-0.03411203 0.032655112 -0.014497671 -0.037453227 -0.0184732 0.03405095 0.0449213 0.022943659
-0.02551637 -0.0072873305 -0.047762502 0.011670561 -0.0031781122 -0.046765864 -0.042436205 -0.041704513
0.04640852 0.023095056 -0.041797545 -0.03398892 0.02868533 0.007879414 0.034960117 -0.022112675
-0.02456947 0.029062916 -0.012799504 0.0018213694 -0.03525916 -0.031885922 0.042466454 -0.018762484
0.028701162 0.014609819 0.051355913 -0.01817931 -0.024603413 0.042524934 -0.0015174142 -0.01551785
0.02738696 -0.0021437632 0.025692126 -0.03297583 -0.028898256 0.024568506 0.028991291 -0.031268522
0.029277746 0.03824272 -0.02148113 -0.03691474 0.0018965576 -0.034668326 0.032842826 -0.035570513
-0.023706865 -0.04847762 -0.020638851 0.046389632 -0.018862465 0.012659424 0.04083797 -0.024753748
-0.0474013 -0.031039257 0.046362832 0.02013619 0.0034331651 0.00031926853 -0.041247554 0.0198052
-0.002803138 0.020199431 0.043359548 -0.03443599 0.002046789 -0.00023297741 0.006351053 0.021342428
0.0095609 -0.006581425 -0.030935656 0.0062062796 -0.010427137 0.022851571 0.027455255 -0.047956962
0.05427728 0.011079304 0.028489316 -0.022926636 -0.027637279 0.051893413 -0.037955124 0.049212445
00000000: 34a4 37bd 27da 553c dcce 96bc 6dbc 2dbd
00000010: a5ea 1cbc 56b3 463d 6581 b93c 8200 a5bc
00000020: a904 48bd a977 cbbc 69d9 bbbb 466d 133d
00000030: e9f5 283d 648a 19bd 5710 603d 972e eb3c
00000040: dd77 44bc aede f7ba 6bc4 953c e275 d53c
00000050: 19f1 ab3a b645 143d 1ade 633d 3ec6 02bd
00000060: 0eb9 0bbd 5ec1 053d a487 6dbc 8e68 19bd
00000070: 1c55 97bc 0279 0b3d 66ff 373d 57f4 bb3c
00000080: b507 d1bc 8fca eebb 9da2 43bd e135 3f3c
00000090: e047 50bb 908d 3fbd 96d1 2dbd 5ad2 2abd
000000a0: dc16 3e3d d831 bd3c e733 2bbd f737 0bbd
000000b0: 7ffd ea3c a818 013c 5732 0f3d a425 b5bc
000000c0: ea45 c9bc 5a15 ee3c 03b5 51bc 04bb ee3a
000000d0: e96b 10bd d09a 02bd 4ef1 2d3d c8b3 99bc
000000e0: b31e eb3c 065e 6f3c 945a 523d c7ec 94bc
000000f0: 198d c9bc a02e 2e3d f9e3 c6ba 953e 7ebc
00000100: 9e5a e03c 617e 0cbb 4b78 d23c aa11 07bd
00000110: 09bc ecbc e443 c93c 257f ed3c 6c13 00bd
00000120: e2d7 ef3c 66a4 1c3d 32f9 afbc e933 17bd
00000130: ea95 f83a 6000 0ebd 3386 063d 63b2 11bd
00000140: e634 c2bc 7890 46bd cf12 a9bc 0e03 3e3d
00000150: 7585 9abc 7969 4f3c b745 273d 5fc8 cabc
00000160: de27 42bd 0a46 febc f4e6 3d3d a7f4 a43c
00000170: f4fe 603b 7f63 a739 32f3 28bd 843e a23c
00000180: dab4 37bb 4779 a53c c899 313d c10c 0dbd
00000190: 6c23 063b 664b 74b9 7e1c d03b 51d6 ae3c
000001a0: 52a5 1c3c ffa8 d7bb c66c fdbc 0c5e cb3b
000001b0: 95d6 2abc 3833 bb3c d8e9 e03c 856e 44bd
000001c0: da51 5e3d f885 353c 6d62 e93c a4d0 bbbc
000001d0: 9367 e2bc 308e 543d d576 1bbd fd92 493d

fc.1.weight f4 [10, 120]
-0.010302681 0.020362219 -0.022727227 0.13399401 0.14428489 0.050390508 0.028345503 -0.031451654
0.09370083 0.029073374 -0.0047392864 0.04639835 -0.04405869 0.12317441 0.0957386 -0.13570076
0.046995863 0.012927991 -0.03483672 -0.08176448 -0.05895437 -0.047724 0.25197542 0.027499678
-0.1139417 0.19866492 -0.0717563 0.033551186 0.027596014 -0.011922157 0.06285941 0.018210169
-0.07371056 0.182959 -0.058185857 0.1984586 -0.003253908 -0.09070391 0.17046897 -0.0028666162
0.12901658 0.065011494 -0.06483945 0.071634315 0.18754002 0.08546319 -0.08843629 0.15178262
-0.00066241523 0.0894557 -0.21938719 0.042269632 -0.074676774 0.14852257 0.08856694 0.10140649
-0.09634921 0.043648332 -0.15745802 0.15651466 0.1584554 -0.020457868 0.041539595 0.09995619
-0.10597857 0.12088234 0.025904339 -0.051697258 -0.09163927 0.02539748 0.03540766 0.054593302
0.1537341 0.06620139 0.037360072 0.1368843 -0.094819166 0.061529774 -0.08325707 0.07816878
-0.066344455 0.010675888 0.058365423 0.08908062 -0.23411945 -0.067105345 -0.09055161 -0.09550899
0.011781089 -0.09129804 0.09333626 0.13670865 -0.008358602 -0.041470148 -0.15778686 0.06373211
0.19982225 0.049917817 -0.123525806 -0.14002004 -0.05503942 -0.06033671 -0.20217304 -0.04575022
-0.11814818 -0.15832771 0.12788756 0.15755415 -0.13808088 -0.016120957 -0.1578449 0.010562766
0.17363487 0.030952195 -0.15727602 0.11089458 0.14138475 0.16445078 -0.023741458 -0.08864141
-0.026318902 0.061402433 0.026286196 0.0052258307 0.18991114 -0.05734349 -0.15345493 0.097331166
-0.05744636 0.050776623 -0.12940413 0.07675702 0.017164353 0.18078415 0.047573462 0.1232455
0.2160537 0.098673895 -0.035422012 -0.06860026 0.08028315 -0.0182923 -0.056920595 -0.031925805
0.15117785 -0.07988765 -0.076677546 -0.019476136 0.19663088 0.016759356 -0.13825119 -0.16198425
0.04498687 -0.057457596 -0.08908866 -0.050595775 -0.054222684 -0.12610568 -0.026579771 -0.03228017
-0.159034 0.0635245 0.045544595 0.21799211 -0.10100627 0.124241225 -0.14214313 -0.13977091
-0.23215798 -0.04346146 0.23383503 -0.14815609 -0.14818473 -0.06690203 -0.17600259 0.072189495
0.019745506 0.17620845 0.07593795 -0.051322903 -0.11383632 -0.06405393 -0.0620423 -0.15375526
0.07061462 -0.09261751 -0.073163986 -0.04821995 -0.07843562 0.18743463 0.06424567 0.21960925
-0.09650609 -0.02012236 0.05625823 0.018005533 0.015986297 -0.065786734 0.008188829 -0.0701734
-0.045647435 -0.06934614 0.11373072 0.017421735 -0.1217006 -0.060281195 -0.113580525 -0.010269429
-0.17526075 -0.04195842 0.034786336 -0.004967638 0.029293573 -0.05022216 0.1368595 0.011795654
-0.1314073 -0.020801375 -0.09216671 0.12148643 0.14012486 -0.022799578 -0.1537628 0.19291502
0.014870507 0.09968706 -0.17518792 -0.07833332 -0.2236539 -0.055054702 0.13388352 -0.15202256
-0.032741535 0.24785757 0.13021614 -0.06514938 0.027404824 -0.20542285 -0.1488727 0.039168958
0.011427769 -0.14002992 0.12033252 -0.14356191 0.111823685 -0.14161664 -0.21846929 -0.1718794
0.08441084 0.22032261 -0.068073146 0.18046093 0.22029184 -0.052385867 0.077215485 -0.17015725
00000000: 93cc 28bc abce a63c 732e babc ba35 093e
00000010: 6bbf 133e 4766 4e3d d434 e83c 73d3 00bd
00000020: 39e6 bf3d 492b ee3c 044c 9bbb 320c 3e3d
00000030: e376 34bd dd42 fc3d 9912 c43d 24f5 0abe
00000040: bc7e 403d edcf 533c f3b0 0ebd 2374 a7bd
00000050: 237a 71bd 3e7a 43bd ec02 813e 0147 e13c
00000060: 445a e9bd d16e 4b3e f8f4 92bd f86c 093d
00000070: 0911 e23c 2755 43bc 6fbc 803d 7e2d 953c
00000080: 90f5 96bd 9b59 3b3e 4b54 6ebd bb38 4b3e
00000090: 843f 55bb f9c2 b9bd 6b8f 2e3e d7dd 3bbb
000000a0: ec1c 043e bf24 853d 8cca 84bd 03b5 923d
000000b0: 7e0a 403e 5307 af3d 161e b5bd e76c 1b3e
000000c0: efa5 2dba 8d34 b73d 09a7 60be ec22 2d3d
000000d0: 23f0 98bd 4d16 183e 9562 b53d 35ae cf3d
000000e0: bc52 c5bd 98c8 323d ad3c 21be 6145 203e
000000f0: 2242 223e 4297 a7bc 6c25 2a3d d5b5 cc3d
00000100: 4b0b d9bd 2991 f73d 5635 d43c 81c0 53bd
00000110: 5fad bbbd 600e d03c 9f07 113d 3a9d 5f3d
00000120: 796c 1d3e 9894 873d e006 193d 662b 0c3e
00000130: 8d30 c2bd a506 7c3d af82 aabd f416 a03d
00000140: 9adf 87bd ebe9 2e3c 9510 6f3d e66f b63d
00000150: 02bd 6fbe 876e 89bd 1f73 b9bd 389a c3bd
00000160: 7805 413c 77fa babd 1527 bf3d 5afd 0b3e
00000170: 85f2 08bc 9adc 29bd e192 21be fb85 823d
00000180: 349e 4c3e a076 4c3d 19fb fcbd 6a61 0fbe
00000190: 0471 61bd a023 77bd 7306 4fbe 9564 3bbd
000001a0: acf7 f1bd a920 22be f5f4 023e e055 213e
000001b0: 1365 0dbe 1910 84bc 18a2 21be 740f 2d3c
000001c0: 57cd 313e 758f fd3c f70c 21be b31c e33d
000001d0: 2ac7 103e c965 283e 727d c2bc a189 b5bd
000001e0: bd9a d7bc 1e81 7b3d 2656 d73c 723d ab3b
000001f0: 1178 423e 02e1 6abd 4a23 1dbe 9055 c73d
00000200: e04c 6bbd 26fb 4f3d 8482 04be c932 9d3d
00000210: 429c 8c3c 7b1f 393e 64dc 423d 2368 fc3d
00000220: 2e3d 5d3e 8a15 ca3d ac16 11bd 4b7e 8cbd
00000230: 7e6b a43d bcd9 95bc 9225 69bd a2c4 02bd
00000240: 5ece 1a3e 239c a3bd 1e09 9dbd 6b8c 9fbc
00000250: 9b59 493e eb4a 893c b891 0dbe 33df 25be
00000260: 2744 383d a858 6bbd 1e74 b6bd 843d 4fbd
00000270: 9b18 5ebd d921 01be d2bd d9bc 3638 04bd
00000280: cfd9 22be 2219 823d f88c 3a3d 5339 5f3e
00000290: 60dc cebd 2f72 fe3d f88d 11be 1b20 0fbe
000002a0: d2ba 6dbe a504 32bd 7372 6f3e 3bb6 17be
000002b0: bdbd 17be ee03 89bd 063a 34be 16d8 933d
000002c0: 54c1 a13c fd6f 343e 5b85 9b3d f737 52bd
000002d0: 0423 e9bd b52e 83bd 1120 7ebd 0572 1dbe
000002e0: 669e 903d 40ae bdbd 00d7 95bd 4882 45bd
000002f0: dba2 a0bd ddee 3f3e 3c93 833d 3fe1 603e
00000300: fca4 c5bd a6d7 a4bc 086f 663d 5780 933c
00000310: b2f5 823c 32bb 86bd 702a 063c 12b7 8fbd
00000320: cef8 3abd 5905 8ebd a7eb e83d 07b8 8e3c
00000330: 2a3e f9bd 6ae9 76bd e89c e8bd 1b41 28bc
00000340: 8e77 33be 98dc 2bbd 1e7c 0e3d 91c7 a2bb
00000350: 13f9 ef3c c0b5 4dbd e624 0c3e 8f42 413c
00000360: a38f 06be a567 aabc e6c1 bcbd e1cd f83d
00000370: e47c 0f3e 2ec6 babc ff73 1dbe 848b 453e
00000380: 6da3 733c bb28 cc3d 7664 33be 386d a0bd
00000390: 8705 65be 0a81 61bd c318 093e cdab 1bbe
000003a0: fd1b 06bd 60ce 7d3e 6157 053e 0a6d 85bd
000003b0: 1580 e03c 5e5a 52be 1672 18be a16f 203d
000003c0: 8a3b 3b3c 0164 0fbe e570 f63d e501 13be
000003d0: d103 e53d f403 11be 6ab6 5fbe 2701 30be
000003e0: 97df ac3d 409c 613e ef69 8bbd c0ca 383e
000003f0: 2f94 613e 9092 56bd 2723 9e3d b43d 2ebe

fc.1.bias f4 [10]
0.06328278 -0.026573088 0.071718715 -0.05823239 -0.06947174 0.048009474 0.01720161 -0.03768178
0.068754256 -0.044022754
00000000: 679a 813d ceaf d9bc 43e1 923d 1685 6ebd
00000010: 3347 8ebd 95a5 443d 64ea 8c3c 3658 1abd
00000020: 08cf 8c3d 3451 34bd
