models_archive/model_5000.pth (torch, 170214 bytes, 6 tensors)

conv1.0.weight f4 [2, 1, 2, 2]
0.02073437 -0.24487746 -0.22703254 0.30520773 0.85885024 1.1942394 1.7875942 1.7009808
00000000: 20db a93c 28c1 7abe 387b 68be 3044 9c3e
00000010: 9cdd 5b3f d6dc 983f e3cf e43f bdb9 d93f

conv1.0.bias f4 [2]
-0.48037767 0.0005050356
00000000: 10f4 f5be 5e64 043a

fc.0.weight f4 [120, 338]
-0.053851586 0.012876034 0.009607993 -0.040298495 0.014116988 -0.027110733 -0.032339133 -0.008537721
0.03384444 0.04038778 -0.016943615 0.008694798 0.002702292 0.046347186 0.03926348 0.0019215718
0.024882026 0.0072393827 0.039273776 0.017111048 0.053508848 -0.026953798 -0.017243989 0.007158894
0.050340317 0.0028451197 0.03289119 0.04294064 -0.019916974 0.028012782 0.037456006 0.02753511
-0.05356948 0.023424797 -0.016386572 0.047982916 -0.001257047 0.04943592 0.005715929 0.029730536
0.021645062 -0.0055299774 0.027873345 -0.029852789 -0.018700756 0.030354328 -0.01386296 -0.039372277
-0.043252677 -0.020718735 5.105138e-05 -0.017808378 -0.036597423 -0.022598218 -0.026540857 0.049447194
-0.038190212 0.03591322 -0.042097814 -0.011259362 0.025829881 -0.025688155 0.009388901 -0.0020101257
-0.018220473 0.0015801825 0.002273947 -0.011823956 0.033064216 -0.040487632 -0.048372008 -0.008271411
-0.03237869 -0.044563875 -0.051193137 -0.0055162758 0.003044486 0.002282679 -0.050964754 0.01662448
-0.005434986 0.029206246 0.051202163 0.030742265 -0.045248378 0.0014833473 0.015657768 0.0035911836
0.004026301 -0.01752752 -0.050840557 -0.010953654 -0.021111727 -0.012596045 0.00033114478 0.021905541
0.006589357 0.031858608 0.044529237 -0.02086512 0.03472895 0.0143043995 -0.011034913 -0.040847365
0.004177686 0.031300597 -0.05210899 0.045108348 -0.015760511 0.007132616 0.0045005456 0.043756887
0.04082159 0.043273576 -0.00043021515 -0.042123914 0.0016267076 0.048205048 0.0068954118 0.007054314
-0.021702364 -0.017509915 -0.03295276 0.039140195 -0.016199466 -0.0153705925 0.0066440813 0.02664829
-0.012318682 -0.04070583 -0.045860115 -0.010821242 -0.043736115 0.038278617 0.028722845 -0.00610999
0.053966783 0.015466191 -0.018771611 0.016409434 0.0309923 0.04378529 0.020810358 -0.007389173
-0.023481742 0.0235015 -0.008039251 -0.03396812 0.032253183 0.008619025 -0.003347613 -0.014730416
0.022910751 -0.034327824 -0.039064392 0.03146573 0.009571984 -0.024758175 0.011467673 -0.0132010095
-0.008678574 0.0069306344 0.028314814 -0.04439561 0.04374882 0.047474988 0.0035005733 0.010347776
-0.008539587 -0.04062883 0.03844275 -0.05442755 -0.039786212 0.054422088 0.053127613 -0.040019013
-0.008747329 -0.07124416 -0.05576764 -0.011156466 -0.032927908 -0.042580366 -0.04896615 -0.04406715
0.033361655 -0.020353716 0.06024393 -0.0039181244 -0.02456828 -0.052691877 0.0002565005 -0.061005685
0.00504665 -0.013573077 0.0082267355 -0.023856808 0.017950337 0.03003123 0.032773934 -0.0045613744
0.003806196 -0.0065907002 0.0036800005 -0.0638978 -0.0596396 0.030499319 0.03021045 0.03497847
-0.034027435 0.0258775 0.061217003 0.10868729 0.04749844 -0.03245507 -0.017695067 -0.06941158
-0.032782853 -0.023066524 -0.014532662 -0.054206207 0.031387273 0.05462223 0.043183852 -0.02105976
0.08095517 0.101664856 0.0426004 0.054064438 0.0072392104 -0.03041709 0.006402369 0.04033588
0.020812094 0.031640857 0.008931089 -0.018779088 0.07553826 0.0734371 0.006847593 0.035867803
0.061125413 0.04363551 0.03796783 -0.03504442 -0.05797494 0.04185345 -0.013274703 0.051168967
0.04476654 0.046657033 -0.05187552 0.020362008 -0.0065488396 -0.043370556 0.029058833 -0.022538556
00000000: 7b93 5cbd 00f6 523c d86a 1d3c 0910 25bd
00000010: f04a 673c 5417 debc 0a76 04bd cce1 0bbc
00000020: 78a0 0a3d a86d 253d 56cd 8abc a074 0e3c
00000030: f018 313b 8cd6 3d3d bed2 203d 40dd fb3a
00000040: 64d5 cb3c 5838 ed3b 8add 203d 782c 8c3c
00000050: 182c 5b3d 36ce dcbc 4443 8dbc 2895 ea3b
00000060: a631 4e3d 3075 3a3b eab8 063d 86e2 2f3d
00000070: ec28 a3bc 107b e53c 786b 193d 5091 e13c
00000080: ac6b 5bbd 5ce5 bf3c 223d 86bc bc89 443d
00000090: 80c3 a4ba 527d 4a3d b04c bb3b 748d f33c
000000a0: fc50 b13c d034 b5bb a456 e43c d68d f4bc
000000b0: 5432 99bc a4a9 f83c 7821 63bc d344 21bd
000000c0: b829 31bd 56ba a9bc 0020 5638 e0e2 91bc
000000d0: 2ee7 15bd e61f b9bc 366c d9bc 2489 4a3d
000000e0: 576d 1cbd be19 133d c26e 2cbd 3079 38bc
000000f0: 3099 d33c f76f d2bc e8d3 193c 50bc 03bb
00000100: 1a43 95bc 201e cf3a 8006 153b 44b9 41bc
00000110: 586e 073d 5cd6 25bd ba21 46bd d084 07bc
00000120: 849f 04bd 9c88 36bd e5af 51bd e0c1 b4bb
00000130: 0086 473b 0099 153b 6bc0 50bd 1030 883c
00000140: f817 b2bb f041 ef3c 5cb9 513d 34d7 fb3c
00000150: 5d56 39bd e06c c23a b844 803c 105a 6b3b
00000160: 10ef 833b e095 8fbc 303e 50bd f476 33bc
00000170: 80f2 acbc a45f 4ebc 809d ad39 4073 b33c
00000180: 88eb d73b 2c7e 023d 4a64 363d 54ed aabc
00000190: f23f 0e3d 005d 6a3c c8cb 34bc 914f 27bd
000001a0: f8e4 883b 0e35 003d 3c70 55bd 88c3 383d
000001b0: 301c 81bc b8b8 e93b 5079 933b 6c3a 333d
000001c0: 8a34 273d a23f 313d 808e e1b9 208a 2cbd
000001d0: 4037 d53a a872 453d e8f2 e13b e027 e73b
000001e0: 28c9 b1bc f470 8fbc 79f9 06bd 7851 203d
000001f0: beb4 84bc f0d4 7bbc 98b6 d93b 844d da3c
00000200: 4cd4 49bc 28bb 26bd d1d7 3bbd 944b 31bc
00000210: a424 33bd 0aca 1c3d 2c4c eb3c 5036 c8bb
00000220: 460c 5d3d e865 7d3c ecc6 99bc 146d 863c
00000230: 90e3 fd3c 3458 333d 7c7a aa3c e020 f2bb
00000240: c85c c0bc 3886 c03c 10b7 03bc 2822 0bbd
00000250: ea1b 043d d036 0d3c a063 5bbb d857 71bc
00000260: 54af bb3c 559b 0cbd fc01 20bd 36e2 003d
00000270: d0d3 1c3c a8d1 cabc e8e2 3b3c 0c49 58bc
00000280: 9430 0ebc 601a e33b 78f4 e73c 2cd8 35bd
00000290: f631 333d 2275 423d e069 653b b889 293c
000002a0: a0e9 0bbc 6b6a 26bd 2576 1d3d 6cef 5ebd
000002b0: def6 22bd b2e9 5e3d 579c 593d faea 23bd
000002c0: f550 0fbc 75e8 91bd 9c6c 64bd 9cc9 36bc
000002d0: 6adf 06bd c068 2ebd bb90 48bd c27f 34bd
000002e0: 3ba6 083d d6bc a6bc 57c2 763d 9c63 80bb
000002f0: 6b43 c9bc 70d3 57bd ea7a 8639 19e1 79bd
00000300: 5e5e a53b 9c61 5ebc 6ec9 063c 5a6f c3bc
00000310: 960c 933c 0e04 f63c f63d 063d 9577 95bb
00000320: 5f71 793b cdf6 d7bb 2a2c 713b dadc 82bd
00000330: a748 74bd b5d9 f93c e87b f73c 9645 0f3d
00000340: 5a60 0bbd 0dfd d33c aebe 7a3d 7197 de3d
00000350: b98d 423d 9cef 04bd 3ff5 90bc a927 8ebd
00000360: 5047 06bd 02f6 bcbc 671a 6ebc 5407 5ebd
00000370: f18f 003d 8fbb 5f3d 8de1 303d 8585 acbc
00000380: d3cb a53d aa35 d03d c27d 2e3d ac72 5d3d
00000390: e636 ed3b 432d f9bc f7ca d13b 3c37 253d
000003a0: 207e aa3c d899 013d b453 123c 9ad6 99bc
000003b0: ceb3 9a3d 3166 963d c661 e03b 1eea 123d
000003c0: a45e 7a3d 26bb 323d 2884 1b3d bd8a 0fbd
000003d0: 2177 6dbd 866e 2b3d 247e 59bc 8d96 513d
000003e0: 1f5d 373d 721b 3f3d 6d7b 54bd 3ace a63c
000003f0: a697 d6bb 53a5 31bd ca0c ee3c c7a2 b8bc

fc.0.bias f4 [120]
0.049474865 -0.045860127 -0.003125663 -0.03211519 -0.048467938 -0.017871993 0.010503642 -0.0045880512
-0.010388026 0.034750663 0.04282062 0.012586186 0.047609705 -0.05758057 0.00737711 -0.0018560993
-0.057059266 0.028210403 -0.0035334155 -0.044214368 0.063609146 0.036679517 -0.011371569 0.001660913
-0.042580012 -0.016087933 -0.014340132 0.022261607 -0.037756454 -0.028275607 -0.05088434 -0.0017979575
0.04910382 0.0070301555 0.00907422 0.024783429 -0.021122238 -0.04271626 -0.007870242 -0.030779049
0.03885179 -0.051149894 0.055785526 0.012936206 -0.04802144 0.02960746 0.018593315 -0.004143202
0.044201013 -0.013592004 0.050110724 0.0075954944 -0.040947895 0.0021908937 -0.037662093 -0.03068309
-0.05114963 0.05830805 0.040070176 0.0038030085 -0.05526894 -0.024936903 0.027514732 -0.05814944
0.021029836 0.036180895 -0.04244767 0.010319389 0.0022396035 -0.01832678 -0.03467874 -0.014154401
0.043260325 0.0044459407 0.03955405 0.012563961 0.028285244 -0.023298362 0.061220713 -0.03806067
0.027105467 0.010375215 0.019695863 0.037359633 0.051066536 0.023580749 0.032368228 -0.03295922
0.0022516376 -0.04118607 -0.017685302 -0.029753024 -0.019653535 -0.008889776 0.039679844 0.034003306
0.060780957 0.012301362 -0.00442284 -0.06319034 0.057037596 -0.041106604 0.044939637 0.018131679
0.010678976 -0.029902369 0.02162404 0.016702194 -0.009029817 -0.0056473813 0.007509082 0.045444686
-0.038095795 -0.016281895 0.011179192 -0.044325717 -0.049762066 0.015753169 -0.0029781223 -0.029092131
00000000: 28a6 4a3d d4d7 3bbd ecd7 4cbb 388b 03bd
00000010: 5186 46bd 4968 92bc 7817 2c3c 5d57 96bb
00000020: 8a32 2abc b656 0e3d ad64 2f3d 4a36 4e3c
00000030: 6502 433d 9bd9 6bbd afbb f13b 5c48 f3ba
00000040: fab6 69bd 8119 e73c e090 67bb 201a 35bd
00000050: 8345 823d 433d 163d d14f 3abc feb2 d93a
00000060: 6168 2ebd d7ca 83bc dff2 6abc f95d b63c
00000070: 83a6 1abd 3fa2 e7bc 196c 50bd 71a9 ebba
00000080: 1621 493d 385d e63b 0aac 143c 9e06 cb3c
00000090: 8b08 adbc 3ff7 2ebd 30f2 00bc 5824 fcbc
000000a0: 0e23 1f3d 8d82 51bd 5d7f 643d 61f2 533c
000000b0: 21b2 44bd 588b f23c 0251 983c b3c3 87bb
000000c0: 1f0c 353d ffb0 5ebc e740 4d3d a0e3 f83b
000000d0: fbb8 27bd 1995 0f3b 9143 1abd 1b5b fbbc
000000e0: 4682 51bd 6cd4 6e3d a020 243d e53b 793b
000000f0: af61 62bd 7a48 ccbc 9366 e13c 1b2e 6ebd
00000100: c346 ac3c 6b32 143d 9cdd 2dbd a812 293c
00000110: 50c6 123b 0b22 96bc 4b0b 0ebd dce7 67bc
00000120: bd31 313d 41af 913b 6d03 223d 12d9 4d3c
00000130: 75b6 e73c 35dc bebc 92c2 7a3d 81e5 1bbd
00000140: 490c de3c cefc 293c 3859 a13c 6a06 193d
00000150: 252b 513d 6a2c c13c 8c94 043d 3f00 07bd
00000160: 3690 133b b9b2 28bd c4e0 90bc 9dbc f3bc
00000170: 7300 a1bc 6ca6 11bc 5587 223d 0d47 0b3d
00000180: 74f5 783d a78b 493c 79ed 90bb f069 81bd
00000190: 41a0 693d 665f 28bd a012 383d e388 943c
000001a0: dff6 2e3c d0f5 f4bc e624 b13c 0ad3 883c
000001b0: ccf1 13bc ab0d b9bb bf0e f63b 3524 3a3d
000001c0: 560a 1cbd 9c61 85bc ee28 373c e28e 35bd
000001d0: 4fd3 4bbd ca0c 813c 9a2c 43bb 9f52 eebc

fc.1.weight f4 [10, 120]
0.0027712386 -0.050338537 -0.072009295 -0.04558153 0.11133142 0.05583503 0.04396344 -0.05854449
-0.049394004 0.044697803 -0.14143446 0.020121718 -0.10872363 0.112782195 0.15241197 0.12291145
-0.17970267 0.011369919 0.1167491 0.08697749 0.03848313 0.04115957 0.065183304 -0.043103494
0.15188482 -0.10703399 0.036641937 0.026064022 0.012355833 0.1105308 0.010754745 0.17032407
-0.024781933 -0.08195434 0.055374194 0.1328246 0.050267454 0.12125064 -0.06382974 -0.122359306
0.024332877 -0.009424672 -0.078500606 -0.074819855 -0.051821828 -0.0011999564 -0.037300553 0.017319331
-0.13486576 -0.07948961 -0.19944824 0.09349996 -0.19559722 -0.02085685 -0.16491821 0.10289026
-0.012200489 0.008062009 0.037957978 -0.019663341 -0.02599941 0.033572387 0.072066166 0.07184505
0.04797979 -0.057575744 -0.015305748 -0.13884582 -0.13787764 -0.052799456 -0.19955753 0.009866987
0.06518559 -0.03196109 0.029286884 -0.09501601 0.06479761 -0.089483246 0.087323844 0.13010344
-0.12440941 -0.10791715 -0.09415452 -0.058211133 -0.23566799 -0.114450224 -0.023148501 -0.17107621
-0.07867174 0.11992007 0.097115465 -0.09248733 -0.04686688 0.1354741 -0.019281747 -0.09171628
-0.09449638 0.11490164 -0.0061248792 0.06395478 -0.11145155 -0.0007946549 -0.0885083 -0.08045228
0.03571119 -0.025146347 0.12724242 -0.05374784 0.103591755 -0.19509277 0.06611777 -0.010081814
0.06812428 0.03622684 0.031173805 0.07600669 0.003369474 -0.07760592 -0.14711122 0.038821697
-0.08292864 -0.064289965 0.08457331 0.038198467 -0.060030807 -0.05835011 0.054573957 0.04047682
0.13131896 -0.029250903 0.10510679 -0.110522054 0.1314094 0.019657897 0.06670629 -0.03092069
0.026586581 0.05187995 -0.21558148 0.07359588 0.16761197 -0.06005827 0.08556471 0.059517976
-0.13672942 0.09859055 -0.15600394 -0.121860795 0.085442595 0.06825089 -0.0068956516 -0.20130135
0.1615926 0.16554442 0.09863478 0.08014044 -0.022865992 -0.16518985 0.019526863 0.13086078
-0.07906865 0.0073975357 0.048794918 -0.07411966 0.0023270545 0.13463728 -0.025631962 -0.064186014
0.015227828 -0.04081473 0.1280313 0.1512839 -0.10158053 -0.038506202 -0.057870157 0.055487253
-0.011800658 0.07145642 0.061256282 0.19729099 0.05619658 -0.17883419 0.009111788 -0.017231278
-0.13775544 -0.1915353 -0.13176158 0.0749806 0.048297215 -0.07449736 0.008017621 -0.062805995
-0.15061802 0.11636143 0.17837714 -0.0030922177 -0.08890518 0.03663885 0.09977069 -0.13706346
-0.17810027 0.13384436 -0.05492944 0.12320043 0.21826452 0.012827646 0.0078887995 0.2338594
-0.035073843 -0.14371172 -0.050302424 -0.07558506 0.07502461 0.073916085 0.17743772 0.038802486
0.21414736 0.007229322 -0.048150156 -0.043152988 0.11519291 -0.04540315 -0.09993019 0.04564765
-0.16920958 0.15491632 0.094900265 0.08619512 -0.013689801 0.11708657 -0.026147759 0.15563588
-0.004407688 -0.028181562 0.09317213 0.009110596 -0.0752849 0.086172074 0.08254014 0.022974592
0.007673054 0.15705658 -0.03454919 0.032158908 -0.014402647 0.04573667 0.031617936 -0.08525689
0.03061484 -0.07648413 -0.054194007 -0.123415865 0.11460624 -0.08758802 -0.028679308 -0.20350096
00000000: ab9d 353b c82f 4ebd 9c79 93bd b3b3 3abd
00000010: ba01 e43d 46b3 643d 0213 343d 59cc 6fbd
00000020: 5e51 4abd 0b15 373d 32d4 10be 4dd6 a43c
00000030: 7faa debd 5afa e63d e211 1c3e 00b9 fb3d
00000040: fa03 38be e648 3a3c 271a ef3d 4121 b23d
00000050: 7da0 1d3d f096 283d d37e 853d 4a8d 30bd
00000060: b287 1b3e a334 dbbd db15 163d 3784 d53c
00000070: 1f70 4a3c f95d e23d ac34 303c 6f69 2e3e
00000080: 7b03 cbbc add7 a7bd 0dd0 623d 2c03 083e
00000090: 3fe5 4d3d 4152 f83d 2bb9 82bd 8497 fabd
000000a0: be55 c73c f169 1abc edc4 a0bd 273b 99bd
000000b0: 2043 54bd db47 9dba 77c8 18bd 45e1 8d3c
000000c0: 401a 0abe 73cb a2bd 293c 4cbe e87c bf3d
000000d0: a34a 48be fcdb aabc 52e0 28be 21b8 d23d
000000e0: 8fe4 47bc 8416 043c d379 1b3d 0415 a1bc
000000f0: b7fc d4bc 3383 093d 6d97 933d 7f23 933d
00000100: 7586 443d 8bd4 6bbd f6c4 7abc 992d 0ebe
00000110: cc2f 0dbe 3e44 58bd cf58 4cbe 25a9 213c
00000120: 0680 853d a2e9 02bd 0ceb ef3c c197 c2bd
00000130: 9cb4 843d fe42 b7bd d8d6 b23d d639 053e
00000140: 5cca febd ab03 ddbd 16d4 c0bd cc6e 6ebd
00000150: f352 71be e164 eabd eda1 bdbc 9a2e 2fbe
00000160: a61e a1bd a798 f53d 79e4 c63d ff69 bdbd
00000170: 7cf7 3fbd b9b9 0a3e c1f4 9dbc bfd5 bbbd
00000180: 5187 c1bd 8d51 eb3d 36b3 c8bb b9fa 823d
00000190: b640 e4bd 6350 50ba d743 b5bd 2ac4 a4bd
000001a0: e645 123d b6ff cdbc d64b 023e b226 5cbd
000001b0: ea27 d43d 66c6 47be c168 873d 312e 25bc
000001c0: be84 8b3d 9862 143d 3560 ff3c 65a9 9b3d
000001d0: 65d2 5c3b daef 9ebd 53a4 16be 8003 1f3d
000001e0: 7ed6 a9bd 75aa 83bd c634 ad3d ff75 1c3d
000001f0: dde2 75bd 8600 6fbd f188 5f3d 06cb 253d
00000200: 7a78 063e 979f efbc 3b42 d73d 6359 e2bd
00000210: 3090 063e 9909 a13c 4f9d 883d 634d fdbc
00000220: 1acc d93c 1280 543d 64c1 5cbe 70b9 963d
00000230: 79a2 2b3e a9ff 75bd 8d3c af3d 1fc9 733d
00000240: cc02 0cbe d8e9 c93d 7fbf 1fbe 2792 f9bd
00000250: 87fc ae3d 1fc7 8b3d ebf4 e1bb f121 4ebe
00000260: 8878 253e 7a84 293e 0801 ca3d ac20 a43d
00000270: 7651 bbbc 8727 29be cdf6 9f3c 5e00 063e
00000280: bfee a1bd 0767 f23b 2edd 473d 0ccc 97bd
00000290: 7f81 183b 5bde 093e 1ffa d1bc f573 83bd
000002a0: 247e 793c 592d 27bd a31a 033e 2bea 1a3e
000002b0: 7409 d0bd aeb8 1dbd 4209 6dbd 9a46 633d
000002c0: 8c57 41bc be57 923d dee7 7a3d a606 4a3e
000002d0: 632e 663d 4f20 37be 9c49 153c 9c28 8dbc
000002e0: c30f 0dbe d421 44be 82ec 06be 6e8f 993d
000002f0: 4dd3 453d 1292 98bd 575c 033c 6ea0 80bd
00000300: 9c3b 1abe e74e ee3d 7fa8 363e cea6 4abb
00000310: eb13 b6bd 9e12 163d 9354 cc3d 5d5a 0cbe
00000320: eb5f 36be 7f0e 093e b1fd 60bd 8250 fc3d
00000330: bc80 5f3e 0c2b 523c 0640 013c d778 6f3e
00000340: 97a9 0fbd 2a29 13be ea09 4ebd 57cc 9abd
00000350: 81a6 993d 5161 973d 3cb2 353e 5bef 1e3d
00000360: 7249 5b3e f3e3 ec3b 1939 45bd 30c1 30bd
00000370: 43ea eb3d a7f8 39bd 33a8 ccbd 08f9 3a3d
00000380: 4745 2dbe 62a2 1e3e 125b c23d 1187 b03d
00000390: 304b 60bc 15cb ef3d d333 d6bc 035f 1f3e
000003a0: 5e6e 90bb 05dd e6bc 08d1 be3d 9c44 153c
000003b0: f82e 9abd fc7a b03d ce0a a93d 3635 bc3c
000003c0: 3e6e fb3b 71d3 203e 7483 0dbd 0fb9 033d
000003d0: 14f9 6bbc 6056 3b3d cf81 013d 2a9b aebd
000003e0: f9cb fa3c b6a3 9cbd 89fa 5dbd 75c1 fcbd
000003f0: adb6 ea3d 5961 b3bd def0 eabc 8e62 50be

fc.1.bias f4 [10]
-0.00084562646 0.04273346 -0.08600887 -0.08286831 -0.039136533 -0.012438789 -0.0061853267 0.029276961
-0.1208942 0.055593636
00000000: 08ad 5dba 4809 2f3d 6b25 b0bd dcb6 a9bd
00000010: a14d 20bd 10cc 4bbc 48ae cabb 3dd6 ef3c
00000020: 6197 f7bd 27b6 633d
