models_archive/model_2000.pth (torch, 170214 bytes, 6 tensors)

conv1.0.weight f4 [2, 1, 2, 2]
0.9325881 1.3642439 1.4833556 1.2651931 -0.24959785 0.25334394 -0.25088078 -0.29320258
00000000: 18be 6e3f 8b9f ae3f 99de bd3f d9f1 a13f
00000010: 9496 7fbe 4cb6 813e 7273 80be a61e 96be

conv1.0.bias f4 [2]
-1.295952 -0.16748947
00000000: c1e1 a5bf 5c82 2bbe

fc.0.weight f4 [120, 338]
-0.009806263 0.03623779 -0.03831652 0.010177724 -0.011935198 -0.07127843 -0.026287947 -0.021994794
-0.0420391 0.021434465 -0.041676175 -0.037593964 -0.043202166 0.025028024 0.023568897 -0.011804579
-0.009236937 -0.08981114 -0.029276948 -0.078787915 0.009091497 -0.02182074 -0.094458885 -0.0048206816
-0.049672674 -0.028141007 -0.0418342 -0.035487566 -0.04006195 0.010482085 -0.011545616 0.038022168
0.03403584 0.04297768 -0.0039361003 -0.033234794 -0.064832 -0.010579777 0.015186384 0.039096747
0.028289575 0.016218523 -0.006454833 0.025430612 0.067198135 0.07951403 0.044621497 0.0006096917
-0.048638556 0.010989964 0.027544077 0.044836327 0.027818106 0.04340875 0.008823399 0.026392506
0.02362963 0.09501344 0.012190381 -0.029493196 -0.08653915 -0.055795517 -0.05299525 0.009847274
0.03856414 0.029592447 0.046216138 0.04624679 0.017818732 0.04004302 0.020097466 0.06322941
-0.015286302 -0.030751953 -0.07555631 -0.057634972 -0.06451907 -0.019373452 -0.00960335 -0.045515746
-0.03170226 0.03796028 -0.017755182 -0.043117333 0.020607328 0.0234813 0.011048758 0.0009105494
-0.006087516 0.01450454 0.04602946 -0.02411515 0.05361407 0.043026473 -0.02418988 -0.035386164
-0.05573724 0.021580217 -0.038147587 -0.016378619 -0.033850536 -0.045167897 0.026466846 0.006965156
0.040091466 0.007377497 0.033173185 0.016268667 0.0144070145 0.02576557 -0.0537637 0.014756813
-0.011925544 0.020707803 0.077156305 0.05849222 -0.024580589 -0.007888329 -0.04499837 0.013002475
0.009358959 0.031006793 -0.02178673 -0.01090388 -0.07596917 -0.06385128 0.0033280393 0.01328863
0.014207799 0.004348919 -0.047955602 -0.0047794995 0.01439014 0.029216511 0.013966754 -0.006525435
-0.07466822 -0.054364823 -0.06348681 0.032899182 0.049789604 0.03551203 0.04379656 -0.0626301
-0.004994151 0.008810979 0.018055018 0.024626095 0.059185512 0.04690298 0.05567046 0.014370215
0.011626331 -0.027529152 0.028211987 -0.044374354 -0.04354115 0.014062672 -0.052176867 0.06770019
0.03705469 0.14403345 0.13525292 0.1434041 0.018333556 0.007668438 -0.069435164 -0.066898175
-0.027146183 -0.027251996 0.030255333 -0.0133398585 -0.028118536 0.028335907 0.008371912 0.00594515
-0.023787059 -0.04609234 -0.038159892 -0.005836021 0.013434 0.03433638 0.009894237 -0.0045126453
-0.004782129 0.034013957 0.016386807 0.049454145 -0.038977638 0.019640312 0.029566243 0.039310403
-0.04130508 0.034984082 0.024481013 -0.035654426 0.03915198 0.0044677593 0.05061666 -0.05281108
0.036839552 0.02247025 0.023318164 0.03962151 -0.03288254 -0.027641784 -0.03176759 -0.03036539
0.013360836 -0.019331183 0.009451628 -0.0061957613 0.048657477 0.031708494 0.018398128 0.051005013
0.02336596 0.04519698 -0.036679074 -0.008656185 0.008213736 -0.049793433 -0.019316737 0.028456047
-0.01383578 -0.023993902 -0.049223453 -0.051219277 0.04717178 0.047390677 -0.010968737 -0.0019768812
0.0022433028 0.007151317 -0.006047994 -0.044230796 -0.050658964 0.026281826 0.0020362623 0.014796667
-0.045744836 0.013536572 0.027177207 0.024593383 0.046975665 -0.053305563 -0.01925549 -0.04164725
-0.0161969 0.03884068 0.051638357 0.0011827126 0.041878216 -0.025594445 -0.017437357 -0.027133474
00000000: 73aa 20bc 146e 143d c9f1 1cbd 78c0 263c
00000010: d98b 43bc 6dfa 91bd d259 d7bc 6d2e b4bc
00000020: 3131 2cbd 5597 af3c a3b4 2abd 21fc 19bd
00000030: c1f4 30bd 9207 cd3c 8f13 c13c fe67 41bc
00000040: 8656 17bc e7ee b7bd 36d6 efbc 8f5b a1bd
00000050: 81f4 143c 69c1 b2bc a973 c1bd cff6 9dbb
00000060: 9375 4bbd f887 e6bc 575a 2bbd 695b 11bd
00000070: 0018 24bd 0dbd 2b3c d329 3dbc 22bd 1b3d
00000080: 2a69 0b3d 5d09 303d 67fa 80bb 3521 08bd
00000090: a4c6 84bd cd56 2dbc 50d0 783c e923 203d
000000a0: 8abf e73c b5dc 843c 1083 d3bb dc53 d03c
000000b0: 2d9f 893d 40d8 a23d 08c5 363d b8d3 1f3a
000000c0: 3939 47bd 400f 343c 1ea4 e13c 4ca6 373d
000000d0: cce2 e33c 60cd 313d 0590 103c 1935 d83c
000000e0: ed92 c13c 6896 c23d 2aba 473c b79b f1bc
000000f0: 703b b1bd d789 64bd 8c11 59bd 7656 213c
00000100: 6ff5 1d3d dc6b f23c 224d 3d3d 466d 3d3d
00000110: 97f8 913c 2604 243d 71a3 a43c 6c7e 813d
00000120: 6673 7abc 85eb fbbc 44bd 9abd a612 6cbd
00000130: 9322 84bd 13b5 9ebc 5f57 1dbc b86e 3abd
00000140: 3bda 01bd 3d7c 1b3d 5173 91bc cd9b 30bd
00000150: b3d0 a83c db5b c03c da05 353c f0b1 6e3a
00000160: c979 c7bb 73a4 6d3c 6389 3c3d 238d c5bc
00000170: 6d9a 5b3d 873c 303d db29 c6bc 15f1 10bd
00000180: bb4c 64bd ffc8 b03c a540 1cbd 742c 86bc
00000190: dca6 0abd f901 39bd 00d1 d83c f73b e43b
000001a0: f336 243d eebe f13b 9be0 073d de45 853c
000001b0: 660b 6c3c 5112 d33c 5337 5cbd 8fc6 713c
000001c0: 5b63 43bc 69a3 a93c 2004 9e3d 8a95 6f3d
000001d0: 3b5d c9bc 0d3e 01bc 3650 38bd 5508 553c
000001e0: 5256 193c f501 fe3c 167a b2bc 30a6 32bc
000001f0: b995 9bbd 76c4 82bd 3c1b 5a3b 8eb8 593c
00000200: d4c7 683c 6081 8e3b 186d 44bd 599d 9cbb
00000210: 9fc4 6b3c 7757 ef3c d0d4 643c 51d3 d5bb
00000220: a7eb 98bd a6ad 5ebd 5f05 82bd 4bc1 063d
00000230: 2ff0 4b3d 1075 113d 0664 333d 3644 80bd
00000240: faa5 a3bb ed5b 103c 1ee8 933c aabc c93c
00000250: 826c 723d 571d 403d b506 643d 0d71 6b3c
00000260: 5e7c 3e3c d184 e1bc d31c e73c e2c1 35bd
00000270: 3458 32bd 1f67 663c 69b7 55bd 66a6 8a3d
00000280: a9c6 173d 817d 133e be7f 0a3e 86d8 123e
00000290: 4130 963c 8547 fb3b 0634 8ebd e901 89bd
000002a0: ac61 debc 943f dfbc 08da f73c 6c8f 5abc
000002b0: d858 e6bc b420 e83c 582a 093c 88cf c23b
000002c0: 14dd c2bc 52cb 3cbd 8c4d 1cbd 183c bfbb
000002d0: 481a 5c3c 4ea4 0c3d 701b 223c d0de 93bb
000002e0: 68b3 9cbb 3852 0b3d a03d 863c 6e90 4a3d
000002f0: 04a7 1fbd b8e4 a03c e834 f23c f203 213d
00000300: 842f 29bd 784b 0f3d 688c c83c 600a 12bd
00000310: d45d 203d 4866 923b 6a53 4f3d 6e50 58bd
00000320: 12e5 163d 8813 b83c bc05 bf3c 2a4a 223d
00000330: d8af 06bd 0671 e2bc bc1e 02bd d7c0 f8bc
00000340: 68e7 5a3c 6e5c 9ebc 00db 1a3c d005 cbbb
00000350: 104d 473d c4e0 013d acb7 963c a2ea 503d
00000360: f869 bf3c 7820 393d cc3c 16bd acd2 0dbc
00000370: e892 063c 33f4 4bbd 223e 9ebc a81c e93c
00000380: 78af 62bc dc8e c4bc 889e 49bd 4ecb 51bd
00000390: 3237 413d ba1c 423d 38b6 33bc 908e 01bb
000003a0: 6004 133b 9855 ea3b 402e c6bb 5a2b 35bd
000003b0: c67f 4fbd fc4c d73c d072 053b b86d 723c
000003c0: f05e 3bbd 80c8 5d3c bca2 de3c 1078 c93c
000003d0: 8e69 403d ef56 5abd b0bd 9dbc 4f96 2abd
000003e0: 5caf 84bc 6817 1f3d be82 533d 4005 9b3a
000003f0: 7e88 2b3d 71ab d1bc cad8 8ebc 0547 debc

fc.0.bias f4 [120]
-0.024665914 -0.03735863 0.019648246 0.007300474 0.014414936 0.002359076 0.035360284 0.03295736
-0.04032869 0.037497547 0.019087076 -0.03402992 0.014641276 -0.00943015 0.015214582 -0.028980616
0.04552574 -0.012406275 -0.034885652 -0.03557683 0.04667234 0.020434389 -0.019997837 -0.045187823
0.03258813 0.04525564 -0.029274767 0.016320758 0.01818091 0.0502514 -0.03619225 0.019469969
0.008104445 -0.032661512 0.04180116 0.04961187 -0.0064670155 0.04678259 -0.0037760464 -0.022693608
-0.039321028 -0.0278371 -0.027228147 0.05065007 -0.02455822 0.033005733 -0.004428784 -0.016305704
0.04644391 -0.042755693 0.03594937 0.0067874286 -0.028035773 0.019191561 -0.02024811 0.0015952627
0.046242226 0.047626276 -0.04534687 -0.016892001 -0.04902915 -0.01618653 -0.02862193 0.036370605
-0.01970514 0.040319953 -0.021386495 -0.039236143 0.024250727 0.038697638 0.018635355 0.0067615416
0.050285354 0.011627808 0.06335379 0.049216967 0.023412637 0.029191263 -0.04546929 0.042323593
0.017695485 -0.0037341258 0.010975454 0.046788305 -0.012279676 -0.032652196 0.0063246405 -0.054745518
-0.05811674 -0.044802442 -0.039413225 0.021435339 -0.005242797 -0.04976173 -0.052577317 0.0034225017
0.04844526 -0.019210182 -0.008249187 0.016532445 0.010868345 -0.047518767 0.035937063 -0.044701006
0.036211517 0.036292847 0.010467937 -0.04710343 -0.00632192 0.048567474 -0.04949151 0.017349888
-0.0009905337 -0.013772177 -0.04453365 -0.047836177 -0.0053691934 0.06438082 -0.052916575 0.044366267
00000000: 2c10 cabc 5d05 19bd 5cf5 a03c d138 ef3b
00000010: a02c 6c3c ba9a 1a3b f2d5 103d 4cfe 063d
00000020: b22f 25bd 0797 193d 805c 9c3c f562 0bbd
00000030: f6e1 6f3c ea80 1abc 9546 793c c268 edbc
00000040: 3379 3a3d b043 4bbc 42e4 0ebd 03b9 11bd
00000050: 7f2b 3f3d 0566 a73c 81d2 a3bc de16 39bd
00000060: 227b 053d fa5d 393d a3d1 efbc 1cb3 853c
00000070: 22f0 943c 69d4 4d3d 533e 14bd 7c7f 9f3c
00000080: 82c8 043c 14c8 05bd b137 2b3d d135 4b3d
00000090: 42e9 d3bb 1a9f 3f3d 8c77 77bb f2e7 b9bc
000000a0: 160f 21bd a10a e4bc 900d dfbc 7376 4f3d
000000b0: 522e c9bc 0531 073d 551f 91bb 8a93 85bc
000000c0: f83b 3e3d 9820 2fbd a63f 133d 1469 de3b
000000d0: 47ab e5bc 9f37 9d3c 5ddf a5bc 2218 d13a
000000e0: 7d68 3d3d c513 433d a4bd 39bd 1861 8abc
000000f0: cad2 48bd 9d99 84bc 8a78 eabc 58f9 143d
00000100: ac6c a1bc 8926 253d bb32 afbc 14b6 20bd
00000110: 76a9 c63c 6a81 1e3d 2ca9 983c ec8f dd3b
00000120: 04f8 4d3d 9082 3e3c a2bf 813d bb97 493d
00000130: dccb bf3c 8422 ef3c 023e 3abd 815b 2d3d
00000140: 1ff6 903c 3cb8 74bb 64d2 333c 18a5 3f3d
00000150: b230 49bc 4fbe 05bd ee3e cf3b d63c 60bd
00000160: d20b 6ebd c482 37bd c36f 21bd 2a99 af3c
00000170: c5cb abbb f5d2 4bbd 505b 57bd 0d4c 603b
00000180: 896e 463d ac5e 9dbc 9927 07bc 0d6f 873c
00000190: 2511 323c 0aa3 42bd be32 133d 6718 37bd
000001a0: 8752 143d cfa7 143d b681 2b3c 87ef 40bd
000001b0: 1c28 cfbb b0ee 463d 9cb7 4abd 5a21 8e3c
000001c0: ccd4 81ba b2a4 61bc eb68 36bd deef 43bd
000001d0: 0ff0 afbb 17da 833d 0dbf 58bd 67b9 353d

fc.1.weight f4 [10, 120]
-0.09412436 0.18152712 0.27631322 0.06409062 -0.100619845 -0.10471926 -0.030107839 -0.14766096
0.02362598 0.1644728 -0.059341304 -0.11072429 -0.035029896 -0.095309444 0.018434862 0.042377003
0.033555705 -0.16775279 0.107349716 -0.059776273 -0.06010005 -0.13046812 -0.22766085 0.0028891822
-0.020750813 -0.07620452 0.14508149 -0.0695943 -0.050821327 -0.13661112 -0.092171125 -0.03578848
-0.0547679 -0.102172315 0.048322123 0.059331477 -0.12637572 -0.012318375 0.0457034 0.12365385
0.11560679 0.13903035 0.07771477 0.024830455 -0.052132864 0.041655328 -0.03184463 -0.063561074
0.03320902 -0.024348142 0.071270406 -0.042939022 -0.0352118 0.22347736 0.08776886 0.061686132
-0.10237427 0.027822461 -0.18794131 0.1254545 -0.12718113 -0.108760014 -0.008695862 0.04895005
0.0060754484 0.11862521 0.29342183 0.060668584 0.028228715 -0.1492462 0.012017913 0.13567573
0.048024528 0.10342804 0.047012024 -0.03206799 -0.0076263235 0.049018987 0.03533196 -0.060745668
-0.18301105 -0.118341625 -0.075399406 0.14232707 -0.013683961 -0.0062014726 0.08933888 0.05479158
-0.039197434 0.117817245 0.124415964 -0.05141326 -0.099187195 -0.18360797 -0.089662015 0.04899154
0.04538864 -0.053076483 -0.07327562 -0.03466332 0.03331254 -0.07169132 0.042994082 0.15626234
0.007797312 -0.18865079 -0.17547503 0.08133243 -0.1793692 -0.02473331 0.040266085 -0.014693902
0.016738232 -0.02188145 -0.0037547473 0.010356388 -0.006993392 0.022381365 -0.050253905 -0.010838386
-0.03450741 -0.14359963 -0.04057841 -0.09752806 -0.073970266 0.07455016 -0.005422771 0.014473994
-0.028719248 0.00025428526 -0.12954874 -0.0018829228 -0.09124023 0.051520746 -0.18619062 0.059147727
0.1250768 -0.03359241 -0.027236314 -0.05482264 -0.06428905 0.03526071 0.17115246 0.023450276
0.111547776 -0.027336989 -0.008097069 -0.043134306 -0.11861243 -0.114418596 -0.02851887 -0.027716363
0.053047117 0.018855978 -0.15618096 -0.111798756 0.028891986 -0.10656529 0.025381334 -0.119093955
0.012549739 -0.076079845 0.10172866 -0.03433356 0.20472066 -0.00048220894 -0.06779464 0.009787062
-0.07786115 -0.16642694 -0.008981354 0.021918245 0.056567863 -0.25314772 0.03921323 -0.011987314
0.099661134 0.06013046 0.10919227 0.20666741 0.22751155 -0.0006714088 0.07628603 0.04044533
-0.03538756 -0.18207982 0.07211334 -0.05931394 0.0050511872 -0.020622203 -0.09301339 -0.13971564
0.0017341881 0.1317571 -0.09754638 -0.110284775 -0.020400608 -0.0986562 -0.09627154 -0.03659513
0.04702312 -0.10960008 -0.023836983 0.083644286 -0.03212014 -0.016470717 -0.08697359 0.14090106
0.09111594 -0.11438101 0.08693581 -0.14257689 0.16895483 -0.022142563 0.1321727 -0.06863597
0.012268991 0.11926505 -0.12775682 0.1228937 0.01555902 0.24543853 0.14905901 -0.11425087
0.014341899 0.13215645 0.09995058 -0.051379085 0.018894365 -0.080078386 0.11710711 0.023775382
-0.14162408 0.044990856 -0.11265518 0.061005592 -0.13354824 -0.093852304 0.10600963 0.061810363
0.1019151 0.0021465558 -0.036465764 -0.12946638 -0.13729754 -0.20309164 0.012239624 0.008709323
-0.16004834 0.14681919 0.051812734 -0.18114881 -0.054868523 -0.124919765 -0.18620132 0.09553517
00000000: 46c4 c0bd 3fe2 393e ed78 8d3e f141 833d
00000010: c711 cebd 0d77 d6bd b7a4 f6bc 6f34 17be
00000020: 458b c13c 8f6b 283e de0f 73bd 6bc3 e2bd
00000030: 827b 0fbd 9931 c3bd b504 973c 8293 2d3d
00000040: b571 093d 63c7 2bbe 2bda db3d f7d7 74bd
00000050: 782b 76bd 6f99 05be ed1f 69be 6f58 3d3b
00000060: 9cfd a9bc 1e11 9cbd 3e90 143e 7587 8ebd
00000070: 062a 50bd c9e3 0bbe 37c4 bcbd f196 12bd
00000080: 4e54 60bd b83f d1bd 6bed 453d 9005 733d
00000090: a368 01be 02d3 49bc 7d33 3b3d 3b3e fd3d
000000a0: 41c3 ec3d f95d 0e3e ec28 9f3d 3d69 cb3c
000000b0: 4589 55bd c79e 2a3d 846f 02bd 4f2c 82bd
000000c0: 2e06 083d c175 c7bc 38f6 913d d4e0 2fbd
000000d0: 403a 10bd 40d7 643e 29c0 b33d 99aa 7c3d
000000e0: 9aa9 d1bd eeeb e33c b073 40be 2577 003e
000000f0: c53b 02be 92bd debd 1779 0ebc d97f 483d
00000100: 8e14 c73b c6f1 f23d 633b 963e 9f7f 783d
00000110: e83f e73c ffd3 18be c8e6 443c 94ee 0a3e
00000120: 5eb5 443d 15d2 d33d ae8f 403d ba59 03bd
00000130: 3de6 f9bb 22c8 483d 3fb8 103d 73d0 78bd
00000140: 4067 3bbe 185d f2bd 016b 9abd 30be 113e
00000150: b132 60bc b935 cbbb 4df7 b63d 236d 603d
00000160: 7d8d 20bd 2b4a f13d cccd fe3d b696 52bd
00000170: a822 cbbd ba03 3cbe b8a0 b7bd 5aab 483d
00000180: 70e9 393d ba66 59bd 8711 96bd 20fb 0dbd
00000190: bb72 083d e6d2 92bd 901a 303d 3c03 203e
000001a0: 9880 ff3b ac2d 41be baaf 33be 9e91 a63d
000001b0: 8fac 37be 839d cabc 0dee 243d b1be 70bc
000001c0: 9e1e 893c ba40 b3bc 3512 76bb d7ad 293c
000001d0: d328 e5bb 2059 b73c 0ad7 4dbd 7c93 31bc
000001e0: a457 0dbd c80b 13be 8c35 26bd cbbc c7bd
000001f0: b97d 97bd c1ad 983d 80b1 b1bb 5524 6d3c
00000200: a144 ebbc 9751 8539 6da8 04be 68cc f6ba
00000210: 28dc babd 6b07 533d c1a8 3ebe e344 723d
00000220: 2214 003e 3298 09bd b11e dfbc b48d 60bd
00000230: faa9 83bd 896d 103d 9742 2f3e cb1a c03c
00000240: 2973 e43d d2f1 dfbc 92a9 04bc 99ad 30bd
00000250: 13eb f2bd 4c54 eabd 68a0 e9bc 6d0d e3bc
00000260: ef47 593d da77 9a3c e7ed 1fbe bff6 e4bd
00000270: e3ae ec3c e73e dabd 84ec cf3c 88e7 f3bd
00000280: 6c9d 4d3c c0cf 9bbd 1e57 d03d 59a1 0cbd
00000290: 4ba2 513e fdd0 fcb9 ebd7 8abd ea59 203c
000002a0: ab75 9fbd d36b 2abe 8726 13bc e48d b33c
000002b0: b4b3 673d 949c 81be 0d9e 203d 7066 44bc
000002c0: 231b cc3d 5b4b 763d 32a0 df3d 9fa0 533e
000002d0: caf8 683e 7b01 30ba da3b 9c3d 01aa 253d
000002e0: 8cf2 10bd 2273 3abe 29b0 933d 2df3 72bd
000002f0: 6e84 a53b e5ef a8bc ce7d bebd 9e11 0fbe
00000300: b24d e33a 55eb 063e 65c6 c7bd fcdc e1bd
00000310: 2d1f a7bc 430c cabd 032a c5bd c6e4 15bd
00000320: 519b 403d 0276 e0bd c745 c3bc b24d ab3d
00000330: 6890 03bd 99ed 86bc 361f b2bd 5e48 103e
00000340: fe9a ba3d 9740 eabd 670b b23d adff 11be
00000350: 7f02 2d3e 5264 b5bc 4858 073e 0491 8cbd
00000360: e103 493c 3c41 f43d afd2 02be b1af fb3d
00000370: 43eb 7e3c 3d54 7b3e eda2 183e 5cfc e9bd
00000380: 49fa 6a3c 0554 073e e4b2 cc3d e072 52bd
00000390: 5bc8 9a3c 2300 a4bd dad5 ef3d 97c4 c23c
000003a0: e705 11be 5548 383d c2b7 e6bd 00e1 793d
000003b0: dfc0 08be a335 c0bd 941b d93d dd2c 7d3d
000003c0: ddb8 d03d 3bad 0c3b 205d 15bd d692 04be
000003d0: ba97 0cbe 41f7 4fbe b488 483c 8cb1 0e3c
000003e0: b6e3 23be c557 163e 9739 543d 137f 39be
000003f0: d1bd 60bd efd5 ffbd 8fab 3ebe f1a7 c33d

fc.1.bias f4 [10]
0.02104305 -0.06270223 0.054598484 0.07667382 -0.032702982 -0.07426479 0.07911867 -0.05603205
-0.046387386 -0.054936245
00000000: 7962 ac3c 076a 80bd a9a2 5f3d 2a07 9d3d
00000010: 90f3 05bd 2318 98bd f808 a23d dd81 65bd
00000020: b300 3ebd d404 61bd
